…
dding(voc_size,embedding_vector_features,input_length=sent_length)) model.add(Dropout(0.3)) model.add(LSTM(100)) # 100 model.add(Dropout(0.3)) model.add(Dense(1,activation=\u0026#39;sigmoid\u0026#39;)) # ç¼–è¯‘æ¨¡å‹ model.compile(loss=\u0026#39;binary_crossentropy\u0026#39;,optimizer=\u0026#39;adam\u0026#39;,metrics=[\u0026#39;accuracy\u0026#39;]) print(model.summary()) Model: \u0026#34;sequential\u0026#34; _________________________________________________________________ Layer (type) Output Shape Param #  ================================================================= embedding (Embedding) (None, 5000, 40) 400000 _________________________________________________________________ dropout (Dropout) (None, 5000, 40) 0 _________________________________________________________________ lstm (LSTM) (None, 100) 56400 _________________________________________________________________ dropout_1 (Dropout) (None, 100) 0 _________________________________________________________________ dense (Dense) (None, 1) 101 ================================================================= Total params: 456,501 Trainable params: 456,501 Non-trainable params: 0 _________________________________________________________________ None In [52]: len(embedded_docs),y.shape Out[52]: (44888, (44888,)) æ¨¡å‹è®­ç»ƒ # è½¬æ¢Xå’Œy X_final=np.array(embedded_docs) y_final=np.array(y) # Xå’Œyå¤§å° X_final.shape,y_final.shape Out[53]: 
…
